example/soccertorch.onnx (onnx, 7602 bytes, 6 tensors)

fc1.weight f4 [20, 60]
0	0xbd8aa2d0	-0.06769335
1	0x3d9fc5ca	0.07801397
2	0xbe1b91ba	-0.15192309
3	0xbd7f6cc6	-0.062359594
4	0x3db8220f	0.08990871
5	0x3b53cbd3	0.0032317534
6	0xbca8493b	-0.020542732
7	0xbd13c9b9	-0.03608105
8	0xbd3a954b	-0.045552533
9	0x3b75d547	0.0037511156
10	0xbe11d842	-0.14242652
11	0xbe0e8dda	-0.139213
12	0x3ca0b8c0	0.019619346
13	0x3d59ae08	0.053144485
14	0xbdfe494b	-0.12416323
15	0x3d8a3e3c	0.067501515
16	0xbe0b0ded	-0.13579531
17	0x3cc8105f	0.024421869
18	0x3c9e359e	0.019312676
19	0xbdfb0687	-0.12257104
20	0x3d640f09	0.0556784
21	0xbb7ae189	-0.0038281402
22	0xba24b18f	-0.0006282562
23	0x3d4d7b36	0.05016633
24	0xbae0a22b	-0.0017138174
25	0xbc081435	-0.008305599
26	0xbd1c827d	-0.03821038
27	0x3dc06dae	0.0939592
28	0xbe0ce3cd	-0.13758774
29	0x3c22e57c	0.009942409
30	0xbe1aa094	-0.15100318
31	0xbe1de0ff	-0.1541786
32	0xbdcc8976	-0.09987156
33	0x3dbc1b08	0.09184843
34	0xbd108eb1	-0.03529233
35	0xbd3e1238	-0.046404094
36	0x3c384ac5	0.011248295
37	0xbe06e503	-0.13173299
38	0xbd1aa473	-0.037754487
39	0xbc603783	-0.01368511
40	0x3c961ad7	0.018323345
41	0xbd824b3f	-0.06362008
42	0xbd1d77d9	-0.038444374
43	0xbcc0cf11	-0.023536237
44	0xbddcd1fe	-0.1078224
45	0x3c44b520	0.012006074
46	0xbcd68e95	-0.026191035
47	0x3dc1cce1	0.09462906
48	0x3d8d0b89	0.06886966
49	0x3d8579d1	0.06517375
50	0xbc00aff4	-0.0078544505
51	0xbdaa8fdd	-0.08328221
52	0xbe25a5ec	-0.16176575
53	0xbe003966	-0.12521896
54	0xbb4fea08	-0.0031725187
55	0x3d99e062	0.07513501
56	0x3d68029f	0.056643125
57	0x3cc98214	0.024598159
58	0x3c9b918d	0.018990302
59	0xbe0b2f32	-0.13592222
60	0x3da622d8	0.08112115
61	0xbdf86535	-0.12128679
62	0x3d9e9e7f	0.077450745
63	0xbd4e1cbd	-0.050320376
64	0x3d320371	0.043460313
65	0x3db5f3f1	0.08884419
66	0x3d1cc5c9	0.03827456
67	0x3cd2ff1e	0.025756415
68	0xbd776553	-0.060399365
69	0xbd50227a	-0.05081413
70	0x3c448237	0.011993936
71	0x3c192ba7	0.009348786
72	0x3d2b2203	0.041780483
73	0xbabca1f3	-0.0014391526
74	0xbdea3e57	-0.11437672
75	0xbc940c5d	-0.018072302
76	0xbc18c904	-0.00932527
77	0xbc4d74ec	-0.012540083
78	0xbdc59aca	-0.09648664
79	0xbb403080	-0.0029325783
80	0xbd84a897	-0.064774685
81	0xbdde58ca	-0.10856779
82	0xbe080063	-0.13281398
83	0xbe04fce4	-0.12987095
84	0x3c028e1a	0.00796845
85	0xbcafcff2	-0.02146146
86	0x3dc6917c	0.09695718
87	0xbca5b7b4	-0.020229198
88	0xbd918c69	-0.07106859
89	0x3d980cae	0.074242935
90	0x3d9f294b	0.07771548
91	0xbe0adbbe	-0.13560387
92	0xbb86d2cf	-0.004114486
93	0xbc52de88	-0.012870438
94	0x3db70bb9	0.08937783
95	0x3db97c1b	0.09056874
96	0xbde1d53d	-0.11027
97	0x3d774d70	0.060376585
98	0x3c3aa750	0.0113924295
99	0xbd7b5868	-0.061363608
100	0x3d75f7cc	0.06005077
101	0xbe09611c	-0.1341595
102	0x3da35c90	0.07976639
103	0xbd877239	-0.06613583
104	0xbdb4e4bb	-0.088326894
105	0x3c58f7a1	0.013242633
106	0x3db4ba81	0.08824635
107	0xbd68239d	-0.05667459
108	0xbcc216d9	-0.023692535
109	0xbdd674ec	-0.1047152
110	0x3dec2ac3	0.11531594
111	0x3d7fa7dd	0.062415946
112	0xbd08ea5c	-0.033426628
113	0xbc578a9e	-0.0131556075
114	0xbcc11290	-0.023568422
115	0x3d9d191a	0.07670803
116	0x3dd2c1e9	0.10290892
117	0x3dcd8cb9	0.10036606
118	0x3de5dc27	0.11223631
119	0xbdad5585	-0.08463577
120	0x3d594f53	0.053054165
121	0xbcc8b3a7	-0.024499727
122	0x3d1a1dde	0.03762614
123	0x39aef936	0.00033373543
124	0xbd103752	-0.035209008
125	0x3d3aa3c7	0.045566346
126	0x3da06163	0.07831075
127	0xbd841dd7	-0.06451004
128	0x3e00b930	0.12570643
129	0x3d56923c	0.052385554
130	0xbd6e50cc	-0.058182523
131	0xbdc433d2	-0.095801964
132	0x3e072321	0.13196994
133	0x3d9459ce	0.072436914
134	0x3d696a2f	0.05698603
135	0xbc6d1f5b	-0.014472808
136	0xbdaa315d	-0.083101965
137	0x3de299c4	0.11064485
138	0xbcedd46d	-0.029031957
139	0x3dfbccae	0.12294899
140	0xbd7664f7	-0.06015488
141	0xbdc01456	-0.09378879
142	0xbdb2a40d	-0.087226965
143	0x3da4ee13	0.080532216
144	0xbd731519	-0.059346292
145	0xbdbc0bfd	-0.09181974
146	0x3de7b1c7	0.11313205
147	0x3dac5bad	0.08415923
148	0x3db60a2b	0.08888658
149	0x3dad2b3e	0.084555134
150	0x3d90da48	0.07072884
151	0x3d129bd0	0.035793126
152	0xbdd3cf59	-0.10342283
153	0xbdeaff3d	-0.11474464
154	0xbce12657	-0.027484102
155	0xbd82dbda	-0.063895896
156	0x3da96d37	0.08272784
157	0xbd61246a	-0.054966368
158	0x3b929d56	0.0044743223
159	0x3d87a520	0.06623292
160	0x3d5e2bbe	0.054240935
161	0xbdbdf050	-0.092743516
162	0xbd34ffcd	-0.044189263
163	0xbdd8d2b2	-0.10587062
164	0x3dc0de1d	0.09417365
165	0xb9513e58	-0.00019955018
166	0x3da349f2	0.07973088
167	0xbd700df2	-0.05860705
168	0x3d800a8d	0.062520124
169	0x3dc153b3	0.094397925
170	0xbd587a3a	-0.05285094
171	0x3dde6ae6	0.10860233
172	0x3ce259ef	0.027630774
173	0x3d47d627	0.048788216
174	0x3dbca933	0.0921196
175	0xbcf3d1c3	-0.029763108
176	0x3e047076	0.12933525
177	0x3dc8c34b	0.09802874
178	0x3c090b9f	0.008364587
179	0xbcae6e51	-0.021292837
180	0xbd89a59d	-0.06721041
181	0x3d31690a	0.043313064
182	0xbd834f59	-0.06411619
183	0xbd92cfd9	-0.0716855
184	0xbd91d291	-0.071202405
185	0xbdd64292	-0.10461916
186	0xbd714041	-0.058899168
187	0x3d91994f	0.071093194
188	0xbced3f49	-0.02896084
189	0x3bedbfce	0.007255531
190	0xbde23c2e	-0.110466346
191	0x3d1825d6	0.03714546
192	0x3dfd7811	0.123764165
193	0xbdde36b2	-0.10850276
194	0xbd8ac5f1	-0.067760356
195	0x3da75fbc	0.08172557
196	0x3c8b184e	0.016979363
197	0x3df36a51	0.118855126
198	0x3d337f30	0.043822467
199	0xbdadb8a3	-0.08482482
200	0x3d5f9beb	0.054592054
201	0x3d75159a	0.059835054
202	0xbc28b6dd	-0.010297504
203	0x3d44dd8d	0.04806285
204	0x3d03e3e9	0.032199774
205	0xbde0ea60	-0.109822035
206	0x3ca6b4c2	0.020349864
207	0xbd5b57ad	-0.05355041
208	0x3da1002d	0.07861362
209	0x3d1722f1	0.036898557
210	0xbd33bfb0	-0.04388398
211	0x3cce1d6e	0.025160518
212	0xbd04935f	-0.032367107
213	0xbdf68015	-0.120361485
214	0x3dbda519	0.092600055
215	0xbd481b46	-0.048854135
216	0xbdba48b7	-0.090959005
217	0x3d68df7a	0.05685375
218	0xbdf5d12f	-0.12002789
219	0xbdb65114	-0.08902183
220	0xb8c30978	-9.300088e-05
221	0xbdbbd40e	-0.091713056
222	0xbe03c4db	-0.12868063
223	0x3de50a02	0.111835495
224	0xbe005e09	-0.12535872
225	0x3da3eb53	0.08003869
226	0x3d83d1ca	0.064364985
227	0x3de4c693	0.111706875
228	0x3d7cd68a	0.061728038
229	0xbdb4854b	-0.08814486
230	0xbd79741f	-0.060901757
231	0xbde9b86c	-0.11412129
232	0xbdf19830	-0.117966056
233	0xbd883e61	-0.06652523
234	0x3d4bd8ce	0.049767308
235	0x3d336d95	0.043805677
236	0xbc25451d	-0.010087279
237	0xbdd783d7	-0.10523193
238	0x3dfae731	0.122511275
239	0xbb71ae22	-0.0036877473
240	0x3e0591a5	0.1304384
241	0x3b3025f8	0.00268781
242	0x3d0b1fa3	0.033965718
243	0x3dca622e	0.098820075
244	0xbcdf1acc	-0.027234457
245	0x3d3a39f9	0.045465443
246	0xbd30fa74	-0.0432076
247	0xbbbfbde4	-0.005851494
248	0x3e39620c	0.18103808
249	0x3d4b0d41	0.049573187
250	0x3e0648b4	0.13113672
251	0x3e3eb126	0.18622264
252	0x3c29abb5	0.01035588
253	0x39f1e097	0.00046134435
254	0xbd0a81ef	-0.03381532
255	0x3d7b8506	0.061406158

fc1.bias f4 [20]
0	0xbda6ace2	-0.081384435
1	0x3dc7468c	0.097302526
2	0xbd36cbd2	-0.044627972
3	0xbdd1dfbc	-0.10247752
4	0x3e033292	0.1281226
5	0x3d2ca25f	0.042147037
6	0xbc62296b	-0.01380382
7	0xbd67643e	-0.056492083
8	0xbdb691d3	-0.089145325
9	0x3d99c84d	0.075089075
10	0xbcaaadff	-0.02083492
11	0x3de1e9e1	0.11030937
12	0x3d941d46	0.07232146
13	0xbd52527f	-0.051348206
14	0x3d537b18	0.051631063
15	0xbe049c8a	-0.1295034
16	0xbd11c019	-0.03558359
17	0xbc1a0a0b	-0.0094018085
18	0xbdde9978	-0.108691156
19	0x3d49e849	0.04929379

fc2.weight f4 [20, 20]
0	0x3e0fa909	0.14029326
1	0x3e1daf5f	0.1539893
2	0xbe0a9540	-0.13533497
3	0xbd4bcc95	-0.04975565
4	0xbe65ec63	-0.22453456
5	0xbd594084	-0.053040043
6	0xbde0bd56	-0.10973613
7	0xbbde0788	-0.0067758
8	0x3db62b8f	0.08895027
9	0x3e1fb25c	0.15595382
10	0x3d9ea91d	0.077470995
11	0xbdb06ba1	-0.086142786
12	0xbb6fa68d	-0.0036567778
13	0xbd3af33b	-0.04564212
14	0xbdd7b5c7	-0.10532718
15	0x3cb139eb	0.021634063
16	0xbe44f3f7	-0.1923369
17	0x3dc492ba	0.09598298
18	0xbda8da6e	-0.08244787
19	0x3dc905d1	0.098155625
20	0x3c7ef31d	0.015560892
21	0xbaf28306	-0.0018502183
22	0xbea20562	-0.31644732
23	0x3ded05f8	0.11573404
24	0xbeae213d	-0.34009734
25	0xbdd8b68d	-0.10581694
26	0xbd0279f4	-0.031854585
27	0xbc72fc08	-0.014830597
28	0x3e3249f3	0.17411022
29	0xbd5fcc1d	-0.054638017
30	0x3d4bd5e3	0.049764525
31	0xbe7d28c3	-0.2472258
32	0xbde06b5d	-0.10957978
33	0x3e558917	0.20853077
34	0xbdc47a4b	-0.09593638
35	0x3dda34fc	0.10654637
36	0xbc561615	-0.013066788
37	0x3e970ca0	0.2950182
38	0xbcc528a9	-0.02406724
39	0xbe5329ba	-0.20621386
40	0xbda4da33	-0.08049431
41	0xbddcac67	-0.10775071
42	0xbe33ed17	-0.17570911
43	0x3e0a08d4	0.1347993
44	0xbdc3a2bd	-0.09552524
45	0xbd92fa0d	-0.071766
46	0xbe097f9f	-0.1342759
47	0xbda3bf15	-0.079954304
48	0x3dbfcc96	0.093651935
49	0x3e01862d	0.1264884
50	0x3dd9bd1f	0.10631775
51	0x3dc0de13	0.09417357
52	0x3e259860	0.16171408
53	0x3e3392de	0.17536494
54	0x3e27ae9a	0.16375199
55	0xbc126aa3	-0.008936557
56	0xbd7ce62d	-0.06174295
57	0xbe77dec1	-0.24206068
58	0x3c96a733	0.018390274
59	0xbdc517ec	-0.09623703
60	0x3dc66f60	0.09689212
61	0xbd42cda1	-0.047559384
62	0xbcc24579	-0.023714768
63	0x3da01a74	0.078175455
64	0xbe3bc2b5	-0.18335994
65	0x3dc49ff2	0.0960082
66	0xbdc2147f	-0.094765656
67	0xbde2003d	-0.11035202
68	0x3dce4a03	0.1007271
69	0x3c6530bf	0.013988673
70	0xbdc42dcb	-0.09579047
71	0xbc98ab70	-0.018636435
72	0xbd4bd351	-0.049762074
73	0x3e39a88e	0.18130705
74	0x3d20b982	0.039239414
75	0x3e1162ad	0.14197798
76	0xbd761339	-0.060076926
77	0xbba11a55	-0.004916469
78	0x3e26898a	0.16263404
79	0x3e0cedb6	0.13762555
80	0xbe53fd89	-0.20702185
81	0xbdec1d2e	-0.11529003
82	0x3e542461	0.20717002
83	0xbd0e0e43	-0.03468157
84	0x3e2d7ac5	0.16941364
85	0x3c3e9a3f	0.011633455
86	0xbd9995ee	-0.074993
87	0x3e32fa15	0.17478211
88	0xbda18366	-0.078863904
89	0xbd691775	-0.056907136
90	0x3e5e0225	0.21680506
91	0x3d331784	0.043723598
92	0x3dedb5fd	0.11606977
93	0x3e2e1173	0.16998844
94	0xbe541720	-0.20711946
95	0xbe00c2ac	-0.12574261
96	0x3e220d66	0.15825424
97	0xbcad2834	-0.021137334
98	0xbe113890	-0.14181733
99	0xbd6bdbc3	-0.057582628
100	0x3d62abe4	0.05533971
101	0x3e00cbdb	0.12577765
102	0xbe7b358e	-0.24532148
103	0xbc1462fe	-0.009056805
104	0xbeb61270	-0.35560942
105	0x3d8bc8c2	0.06825401
106	0x3e56a345	0.2096072
107	0xbd5f59e8	-0.0545291
108	0x3d9afd4f	0.07567846
109	0x3e0c3f94	0.13696128
110	0xbe38da25	-0.18051966
111	0xbe4c0918	-0.19925344
112	0x3e427eee	0.18993732
113	0xbe4e8aa7	-0.20170079
114	0xbbc04454	-0.0058675203
115	0xbe1b54b6	-0.15169033
116	0x3dc6b338	0.09702152
117	0xbe06feb9	-0.13183106
118	0xbdbf9fa8	-0.09356624
119	0xbdf46d49	-0.11934907
120	0x3ddfe773	0.10932817
121	0x3e00f44e	0.12593195
122	0xbe486adb	-0.19572012
123	0xbd6b49ea	-0.057443537
124	0x3db4552a	0.08805306
125	0xbe0e620c	-0.1390459
126	0xbe4b5e1d	-0.1986012
127	0x3e2206d8	0.15822923
128	0x3dac54a1	0.08414579
129	0xbdaea3b4	-0.08527318
130	0x3d11dd54	0.035611466
131	0xbe14949e	-0.14509818
132	0xbe202baa	-0.15641657
133	0xbd39cf40	-0.045363665
134	0xbd40a983	-0.04703666
135	0x3cdd2399	0.026994513
136	0xbe3309dc	-0.1748423
137	0x3cd4a6d1	0.02595845
138	0x3d844b8a	0.064597204
139	0x3d8b579a	0.06803818
140	0x3d0d5ca0	0.034512162
141	0xbca60f24	-0.020270891
142	0x3bb3bf3b	0.005485443
143	0x3d4bd48c	0.049763247
144	0xbd4c9bd6	-0.049953304
145	0x3da05dbb	0.07830378
146	0x3dbd6204	0.092472106
147	0x3e3317cf	0.17489551
148	0xbd238738	-0.039923877
149	0xbd5580e1	-0.05212486
150	0xbd303a2e	-0.043024234
151	0x3ba88d44	0.0051437933
152	0x3e2a90bf	0.16656779
153	0x3e25f1e5	0.16205557
154	0xbd8d5173	-0.06900301
155	0x3e3fae28	0.18718779
156	0x3e470bcd	0.19438095
157	0x3db23d30	0.08703077
158	0xbe857110	-0.26062822
159	0x3e345026	0.17608699
160	0x3c6393b9	0.0138902
161	0x3dc7e483	0.09760382
162	0xbe0d8579	-0.13820447
163	0xbd69af26	-0.0570518
164	0xbe78e5bf	-0.24306391
165	0x3d8b8476	0.06812374
166	0xbce1738a	-0.027520914
167	0x3c48c582	0.012254121
168	0xbe0f47b1	-0.13992192
169	0x3e5c38e8	0.21506083
170	0xbcc08ed8	-0.023505613
171	0x3d8107e8	0.06300336
172	0x3d7457ae	0.05965393
173	0xbd7487aa	-0.05969969
174	0x3de621f2	0.11236943
175	0xbdb54b41	-0.08852244
176	0x3d446ddf	0.047956344
177	0x3cf21e0b	0.029555341
178	0x3cd07fbe	0.025451537
179	0x3d57317a	0.05253742
180	0x3dc09f52	0.09405388
181	0x3e6569ce	0.22403643
182	0x3e29e6b4	0.16591913
183	0x3e56be93	0.20971136
184	0x3f03d60d	0.5149849
185	0x3de373fa	0.11106105
186	0xbc9b0bd8	-0.018926546
187	0xbe28d3c3	-0.1648703
188	0xbd9bc373	-0.07605638
189	0xbde6c6ea	-0.112684086
190	0xbabe687e	-0.0014526991
191	0x3ea853cc	0.32876432
192	0xbdc5db7b	-0.09661003
193	0x3db92542	0.090403095
194	0x3e17a098	0.14807355
195	0xbc9d1ea4	-0.01917965
196	0xbd7f38fe	-0.06231021
197	0xbe189e46	-0.14904127
198	0x3e68e794	0.2274459
199	0x3e5c722d	0.2152793
200	0x3e57e9ee	0.21085331
201	0xbe5ccc9b	-0.21562426
202	0x3d06f3ff	0.032947537
203	0xbe03a005	-0.12854011
204	0xbec39a1b	-0.3820351
205	0xbc81f28b	-0.015862724
206	0x3e51ba75	0.20481284
207	0xbcbdb0be	-0.023155566
208	0xbdcdb7d1	-0.10044826
209	0xbe2699ad	-0.1626956
210	0xbe0528ad	-0.13003798
211	0xbe145570	-0.14485717
212	0xbe33df87	-0.17565738
213	0xbdb16cc9	-0.08663327
214	0xbe2c0971	-0.16800477
215	0xbe109b62	-0.14121774
216	0xbe5026a9	-0.20327248
217	0x3e19b9e3	0.15012316
218	0xbe0d4460	-0.13795614
219	0x3daf451f	0.08558106
220	0x3ab605de	0.0013887247
221	0xbd99dede	-0.07513212
222	0xbd770b2f	-0.0603134
223	0xbe44c58a	-0.1921598
224	0xbe5086fa	-0.2036399
225	0x3e033edf	0.12816952
226	0xbd7ffcf2	-0.062497087
227	0x3d67857f	0.056523796
228	0xbda9ae14	-0.08285156
229	0xbe0cbe76	-0.1374453
230	0xbd2b97a4	-0.041892663
231	0xbe407494	-0.18794471
232	0xbc98717b	-0.0186088
233	0x3d273a06	0.04082682
234	0xbd62453a	-0.0552418
235	0x3e0bd9cc	0.13657302
236	0xbe0772ae	-0.1322734
237	0x3db0b86c	0.08628926
238	0xbd676403	-0.056491863
239	0x3caa235d	0.020768816
240	0xbd380305	-0.044924755
241	0x3e5a8775	0.21340735
242	0xbd853c89	-0.06505687
243	0x3e335531	0.17512967
244	0xbd9eea52	-0.07759537
245	0xbdf226d2	-0.11823811
246	0xbe2b5f7e	-0.16735646
247	0xbde7fffa	-0.113281205
248	0xbde85dbd	-0.11346004
249	0xbd4a028d	-0.04931884
250	0x3d3320dd	0.043732513
251	0x3d79322e	0.06083887
252	0x3e34450e	0.17604467
253	0x3db44bd0	0.088035226
254	0xbe3c7e90	-0.18407655
255	0xbe0868d5	-0.1332124

fc2.bias f4 [20]
0	0xbdd9dc58	-0.1063773
1	0xbd9fe5ab	-0.078074776
2	0xbdf6cd2a	-0.12050851
3	0xbe58bd2b	-0.21165912
4	0x3e3fe043	0.18737893
5	0xbd5dd8b9	-0.05416176
6	0xbce755cb	-0.028239151
7	0x3dfc8121	0.12329317
8	0xbdcdd891	-0.100510724
9	0x3e61294b	0.21988408
10	0x3dc46d60	0.09591174
11	0xbdbb882f	-0.09156834
12	0xbd94b947	-0.07261901
13	0x3df4f2c3	0.119603656
14	0x3a1d0037	0.0005989107
15	0xbe500982	-0.20316127
16	0xbd8faff5	-0.07015983
17	0xbe17a421	-0.14808704
18	0xbcd83642	-0.02639306
19	0xbc6117e1	-0.013738603

fc3.weight f4 [3, 20]
0	0x3bc9e728	0.006161589
1	0x3d41b13a	0.047288157
2	0xbdb1a144	-0.08673337
3	0xbe5e5d4f	-0.21715282
4	0xbe3f4034	-0.18676835
5	0x3da8127d	0.08206651
6	0x3e136d4c	0.14397162
7	0x3d76075b	0.06006561
8	0x3d3ab043	0.045578253
9	0xbe20c29f	-0.15699242
10	0xba801b11	-0.0009773691
11	0x3db4859d	0.08814547
12	0x3de047af	0.109511726
13	0x3dfc91d9	0.12332506
14	0x3d8058a8	0.0626691
15	0xbde5a3d2	-0.11212887
16	0xbe0081c2	-0.12549499
17	0xbdba0323	-0.090826295
18	0xbe39bbca	-0.18138042
19	0x3d609343	0.05482794
20	0x3d0b26e2	0.03397263
21	0xbe9a4a11	-0.30134633
22	0x3dbc5ba9	0.0919717
23	0xbe8382f3	-0.25685844
24	0xbf8e96fe	-1.1139829
25	0x3df23869	0.11827166
26	0x3e53867a	0.20656767
27	0xbe13081c	-0.14358562
28	0xbd9f50a2	-0.07779051
29	0xbf30bd24	-0.69038606
30	0x3dc106c8	0.094251215
31	0x3d987096	0.07443349
32	0x3e37f5ed	0.17964907
33	0x3d984e86	0.07436852
34	0xbf487244	-0.78299356
35	0x3e2af1fb	0.1669387
36	0xbf248e95	-0.6428006
37	0xbf928de0	-1.1449547
38	0xbd1efdf6	-0.038816415
39	0xbec1ce43	-0.37852678
40	0x39012fbc	0.00012320181
41	0xbf159e9f	-0.5844516
42	0xbe223472	-0.15840319
43	0xbf417ddd	-0.7558268
44	0xbe4a13f0	-0.19734168
45	0x3c6e1481	0.014531256
46	0x3e5eb079	0.21747006
47	0x3e2a87db	0.16653387
48	0x3dcb740b	0.09934243
49	0xbf1197f7	-0.56872505
50	0x3e380b5b	0.17973082
51	0xbe6192b3	-0.22028618
52	0xbdbc4961	-0.091936834
53	0xbe3ae4d8	-0.1825136
54	0xbebcfa85	-0.3690988
55	0x3e12de71	0.14342667
56	0xbf2a139e	-0.66436183
57	0xbec8282c	-0.3909315
58	0x3d9bf464	0.07614973
59	0xbf098983	-0.5372545

fc3.bias f4 [3]
0	0xbe47e3dd	-0.19520517
1	0xbd282e24	-0.041059628
2	0xbe3704c0	-0.17872906
