srv/onnxmodel/soccermodel.onnx (onnx, 52834 bytes, 6 tensors)

sequential/dense_2/MatMul/ReadVariableOp:0 f4 [10, 3]
0.1813057 -0.116153955 -0.1992872 0.41144025 -0.011759874 -0.028549578 -0.3841141 -0.007612288
-0.12336552 0.32018396 -0.12178108 -0.106462866 -0.37671998 0.5201428 0.62028897 0.34389818
-0.030668259 -0.6125057 -0.048792124 0.6366856 0.18129182 0.40555143 -0.31206748 -0.50388914
0.49834582 -0.25449187 -0.16601942 0.3156367 -0.6649794 -0.037985563
00000000: 34a8 393e 20e2 edbd f211 4cbe 4ca8 d23e
00000010: 7dac 40bc cee0 e9bc 9aaa c4be 8070 f9bb
00000020: 10a7 fcbd 27ef a33e 5c68 f9bd 3409 dabd
00000030: 71e1 c0be 1428 053f 42cb 1e3f 6c13 b03e
00000040: 003c fbbc 2ccd 1cbf 40da 47bd d4fd 223f
00000050: 90a4 393e 70a4 cf3e 4fc7 9fbe e1fe 00bf
00000060: 2f27 ff3e c24c 82be ff00 2abe 229b a13e
00000070: 173c 2abf c096 1bbd

sequential/dense_2/BiasAdd/ReadVariableOp:0 f4 [3]
0.26821053 -0.31724632 0.03675793
00000000: e452 893e 1c6e a2be 7c8f 163d

sequential/dense_1/MatMul/ReadVariableOp:0 f4 [180, 10]
-0.004534915 -0.08702788 0.026811078 -0.11281996 -0.060849518 0.018530875 0.067209825 0.023664534
0.014033794 0.065266356 -0.082339086 0.07835639 -0.15565406 0.017325832 0.06585218 0.012102529
0.09058723 -0.11342457 0.14875403 0.05376096 -0.060358092 -0.17765479 -0.110928565 -0.17537235
-0.13627079 0.16424787 -0.0021056533 -0.16356537 -0.015747204 0.029618219 0.037908435 0.08640628
-0.04063931 0.16918382 -0.026202932 0.16516069 0.041381344 0.031845868 -0.15469484 0.12676486
-0.005973771 -0.10478602 -0.16513468 -0.0395223 -0.071050406 0.022648036 0.049233034 -0.092944585
-0.15503995 -0.08867621 -0.0030647367 0.068640485 -0.17536941 -0.05760772 0.10442895 0.12903956
0.17612392 -0.1356991 0.14637154 -0.036962226 0.13871923 -0.09874413 -0.12947981 0.07818806
-0.09629878 -0.08831845 -0.030807406 0.030152157 0.1361891 -0.07722538 0.017244697 -0.052385606
-0.08744931 0.1286299 -0.17680599 -0.067616045 -0.07688928 -0.0810092 0.08390279 0.16820857
-0.0692229 0.024889996 0.050811544 -0.071322486 0.008850098 -0.07072506 0.07973242 0.022946058
0.118570164 -0.08758455 0.045867532 -0.17968772 -0.059917256 -0.16391695 0.117397845 -0.17671207
0.09506303 0.033701524 0.08088683 0.13032511 -0.05252047 -0.08872934 -0.084959425 0.07629162
-0.0150025785 -0.02917844 0.06988804 -0.06942088 0.016229182 -0.09550675 0.16604 0.0040628286
-0.0773408 -0.04429395 0.113971025 -0.16924575 -0.08577569 -0.016115027 0.06445536 -0.015284419
-0.07245978 0.16756178 0.11930409 0.10414693 -0.097187996 0.07701048 -0.16458906 0.12823553
-0.03786376 0.14527956 0.1357913 -0.1338207 -0.092806205 0.08062253 -0.02620992 -0.065539286
-0.16845423 -0.11416025 0.02706274 -0.11256639 -0.09495045 0.06917286 0.1764046 -0.11337502
-0.16597095 0.10778502 0.09905723 -0.13980132 0.10409811 -0.1483695 -0.004452467 -0.12703441
0.16661829 0.04186234 0.028860897 0.097592145 -0.046186045 -0.11108914 0.06845912 0.14764655
-0.07701104 0.039323986 0.07815838 -0.05847814 -0.09026543 0.1252349 0.15841413 -0.020102307
0.0064191073 0.13181862 0.09392735 -0.08870721 0.059554577 0.084237434 0.15515593 0.14428061
0.1497092 -0.050729975 0.1671431 -0.11608972 0.17209369 0.14880787 0.039739996 0.05898711
0.14623952 0.03571728 -0.03307444 0.05976283 -0.11709748 -0.17032693 0.015481591 0.10398716
0.14051786 -0.153839 -0.071479164 0.060098886 -0.06600021 0.08254677 -0.13464949 -0.057324834
-0.10226662 0.15944882 0.15699318 0.04019147 -0.04445888 0.03713487 -0.023438066 0.023237063
-0.064159274 -0.037837416 0.047171235 0.11497667 -0.14066267 -0.16405137 -0.07128012 -0.0580481
-0.14713494 0.112467915 -0.14582156 -0.12704577 0.10288063 0.16713092 0.16642603 0.036536932
-0.012445718 0.14705855 0.1275424 -0.0065594725 0.0627832 0.10245198 -0.015418336 0.094252944
0.072622 -0.03499207 0.067608595 -0.14381345 0.0742982 0.07637924 0.024773896 0.08272606
0.06357747 0.10832578 0.15264872 0.099470526 -0.029724777 -0.14707091 -0.03682041 -0.003013723
-0.062997 0.16983086 -0.11511572 -0.04057008 0.0044637322 -0.097216174 -0.02704364 -0.04910229
00000000: a099 94bb ac3b b2bd e8a2 db3c 270e e7bd
00000010: 583d 79bd 10ce 973c 4ea5 893d 20dc c13c
00000020: 00ee 653c 5eaa 853d 65a1 a8bd 5179 a03d
00000030: c763 1fbe e7ee 8d3c 82dd 863d b049 463c
00000040: cc85 b93d 244b e8bd fa52 183e 7434 5c3d
00000050: 0c3a 77bd 23eb 35be 842e e3bd cf94 33be
00000060: 928a 0bbe 9830 283e 00ff 09bb ae7d 27be
00000070: 4800 81bc e8a1 f23c e045 1b3d c7f5 b03d
00000080: 6875 26bd 863e 2d3e 88a7 d6bc e21f 293e
00000090: 7c7f 293d d070 023d 5368 1ebe a6ce 013e
000000a0: a0bf c3bb 0e9a d6bd 1119 29be 23e2 21bd
000000b0: e082 91bd 6088 b93c 94a8 493d bb59 bebd
000000c0: cbc2 1ebe df9b b5bd c0d9 48bb 6293 8c3d
000000d0: 0a94 33be 13f6 6bbd d8de d53d f222 043e
000000e0: d459 343e b4f4 0abe 6ce2 153e b465 17bd
000000f0: 6a0c 0e3e 5d3a cabd 5b96 04be 1021 a03d
00000100: 4b38 c5bd 4ee0 b4bd d05f fcbc a801 f73c
00000110: 2875 0b3e 5728 9ebd c044 8d3c 4a92 56bd
00000120: a018 b3bd 8eb7 033e a10c 35be 487a 8abd
00000130: 2078 9dbd 27e8 a5bd 3ad5 ab3d de3e 2c3e
00000140: bcc4 8dbd 1be6 cb3c c41f 503d 8611 92bd
00000150: 0000 113c 4dd8 90bd c04a a33d 5ff9 bb3c
00000160: ead4 f23d 875f b3bd 98df 3b3d 0f00 38be
00000170: cc6b 75bd d8d9 27be 486e f03d 02f4 34be
00000180: 68b0 c23d 9c0a 0a3d ffa7 a53d f273 053e
00000190: b41f 57bd bab7 b5bd 35ff adbd c83e 9c3d
000001a0: 60cd 75bc a007 efbc 7621 8f3d 892c 8ebd
000001b0: 10f3 843c 0b99 c3bd 6406 2a3e 7a21 853b
000001c0: da64 9ebd 936d 35bd a469 e93d c24e 2dbe
000001d0: 2aab afbd a903 84bc 2c01 843d 806b 7abc
000001e0: cb65 94bd 5195 2b3e b455 f43d fc4a d53d
000001f0: 800a c7bd acb7 9d3d 098a 28be 2d50 033e
00000200: 0817 1bbd 2ac4 143e e00c 0b3e 4b08 09be
00000210: 2e11 bebd 6d1d a53d 30b6 d6bc 7639 86bd
00000220: 447f 2cbe d9cc e9bd aeb2 dd3c 3589 e6bd
00000230: 6275 c2bd 80aa 8d3d 68a3 343e 2a31 e8bd
00000240: 4af4 29be 64be dc3d 84de ca3d 1428 0fbe
00000250: 6431 d53d 2dee 17be 00e6 91bb 4f15 02be
00000260: fc9d 2a3e d877 2b3d b06d ec3c 64de c73d
00000270: 942d 3dbd b482 e3bd 4c34 8c3d a830 173e
00000280: f7b7 9dbd 3012 213d 8011 a03d c686 6fbd
00000290: 15dd b8bd 943d 003e 5037 223e 98ad a4bc
000002a0: 6057 d23b 76fb 063e fc5c c03d 20ac b5bd
000002b0: 80ef 733d ad84 ac3d 32e1 1e3e 4cbe 133e
000002c0: 5e4d 193e 3cca 4fbd 9027 2b3e 72c0 edbd
000002d0: 5439 303e 1761 183e 68c6 223d 789c 713d
000002e0: d0bf 153e 484c 123d 1079 07bd dfc9 743d
000002f0: ced0 efbd 2f6a 2ebe 80a6 7d3c 38f7 d43d
00000300: eae3 0f3e f987 1dbe ab63 92bd 402a 763d
00000310: 1e2b 87bd 480e a93d 8ee1 09be 72cd 6abd
00000320: 2971 d1bd 8d46 233e d2c2 203e d09f 243d
00000330: 841a 36bd bc1a 183d 3001 c0bc a75b be3c
00000340: f065 83bd 68fb 1abd a036 413d e378 eb3d
00000350: e009 10be 15fd 27be 50fb 91bd d8c3 6dbd
00000360: 8baa 16be 9455 e63d 3f52 15be 4918 02be
00000370: 14b3 d23d 5e24 2b3e 966b 2a3e c0a7 153d
00000380: 20e9 4bbc 8496 163e 7a9a 023e d8f0 d6bb
00000390: 7a94 803d 58d2 d13d 309d 7cbc b007 c13d
000003a0: d8ba 943d d853 0fbd 6076 8a3d d543 13be
000003b0: a829 983d b86c 9c3d a0f2 ca3c 486c a93d
000003c0: e834 823d e8d9 dd3d f24f 1c3e 34b7 cb3d
000003d0: 6081 f3bc c299 16be 00d1 16bd e281 45bb
000003e0: 9204 81bd 24e8 2d3e cac1 ebbd d02c 26bd
000003f0: 8044 923b 4619 c7bd a08a ddbc 7c1f 49bd

sequential/dense_1/BiasAdd/ReadVariableOp:0 f4 [10]
0.0 -0.0059922505 0.0 -0.0067058983 0.0 0.0 0.0 -0.006005425
-0.0051242043 0.0
00000000: 0000 0000 a45a c4bb 0000 0000 27bd dbbb
00000010: 0000 0000 0000 0000 0000 0000 28c9 c4bb
00000020: f1e8 a7bb 0000 0000

sequential/dense/MatMul/ReadVariableOp:0 f4 [60, 180]
-0.11193764 -0.12224382 0.13496669 -0.13221584 0.12731639 -0.01347678 -0.041146994 0.0003918463
-0.0766691 0.14969118 -0.06642353 0.06429309 -0.057157654 0.08704566 0.050612673 0.009833112
0.07709472 0.114715554 -0.15969151 -0.12886938 0.028561959 0.035311062 -0.07047551 0.047531158
-0.0833936 -0.0076181293 0.13819335 0.06027723 -0.107656725 0.07039649 -0.07410031 -0.1367979
-0.035459127 0.073677704 -0.052322075 -0.14043708 0.10239855 0.11214666 0.14171447 0.03608875
0.04565602 0.104957156 0.09544915 0.097105846 0.12092529 0.047907412 0.13830824 -0.11138857
-0.04259424 0.07095663 -0.1568286 0.034262218 0.099390194 -0.13219877 -0.13426468 0.14961149
-0.019436259 0.028025743 -0.034281857 -0.040223308 0.14728585 -0.077348836 -0.028646188 -0.020136753
0.12059052 0.014745039 -0.104686946 0.11281113 -0.113316916 0.03213985 0.003541537 -0.106118314
0.01651074 0.12290399 0.10014088 0.025954597 -0.05629098 0.06314882 -0.01875564 -0.121729895
-0.042188957 -0.07189819 -0.07440661 -0.14351633 -0.0041089784 0.116713956 -0.04704836 -0.022988388
0.12870738 -0.03459476 -0.0027947943 -0.08127422 -0.056978546 0.003440963 0.0058510145 -0.01451059
-0.10789848 -0.036074616 0.048685104 0.06482292 -0.09508695 -0.003408239 0.1099524 -0.08600344
-0.10092005 0.025882911 0.112375185 -0.09011558 -0.0722963 -0.11950116 -0.01689525 0.13444282
-0.0895012 -0.061577994 0.051342465 0.08934567 -0.04978741 0.07420522 -0.058054186 -0.15069276
0.118316 0.12998648 0.0005774498 -0.028925389 -0.032580163 -0.020342592 0.036013376 0.15311179
-0.08471455 -0.09629988 -0.12622207 0.050777644 0.14197229 -0.0062682657 0.07801681 0.03775277
0.162342 -0.022377819 0.06493994 0.012662356 -0.07147064 -0.022815228 0.042880874 0.046833094
-0.07814601 -0.07362831 -0.12561016 0.13947986 0.13331419 -0.0670024 0.1501292 0.13282776
0.13770263 0.08783831 -0.10546616 0.1342254 0.05160814 -0.1400861 -0.059963495 -0.10903533
0.09456845 0.07094516 -0.08227793 0.107486285 -0.026826635 0.0050768787 -0.016327718 0.013413986
-0.15324901 0.08122291 -0.028559666 -0.10421758 -0.14799374 0.098191045 -0.118113555 -0.06508452
-0.08956408 0.09011966 -0.1463283 0.07254376 0.12275936 0.16359453 -0.009838536 0.10878177
0.06575121 -0.14155038 0.119193725 -0.12572096 0.13074975 0.10930075 0.022899374 0.04116311
0.13428816 -0.1480017 -0.07898622 -0.13035564 0.1394724 -0.12432468 0.06671186 -0.014529735
0.034140635 -0.11665682 -0.066839725 -0.035507374 0.097292595 -0.11719996 -0.061888218 0.15022363
0.07148206 0.10792759 0.09272091 -0.032617316 0.11925524 -0.008613867 0.0918863 -0.10726066
0.012278411 0.11603323 0.021948075 -0.08088336 -0.080546565 0.0055317343 0.10902324 -0.15174164
-0.090119176 0.037317306 -0.14967777 0.012224949 -0.13253567 0.101693004 -0.111473955 -0.07822651
-0.11057295 0.019030452 0.06942754 -0.008844271 0.02603739 -0.09125347 -0.15009642 -0.05665627
0.097541325 0.14590973 0.075933285 0.11241962 -0.079418875 0.075493164 0.09332402 -0.025062367
-0.057377785 0.04671106 0.09871477 -0.050405793 -0.1571071 0.06583229 0.01190563 0.09428809
00000000: 903f e5bd f85a fabd b534 0a3e 9763 07be
00000010: 3a5f 023e b6cd 5cbc c089 28bd b870 cd39
00000020: b004 9dbd a548 193e 0f09 88bd 18ac 833d
00000030: 251e 6abd ff44 b23d 3c4f 4f3d 101b 213c
00000040: d6e3 9d3d fdef ea3d 2c86 23be 56f6 03be
00000050: c5fa e93c 55a2 103d 7755 90bd 08b0 423d
00000060: 44ca aabd 80a1 f9bb 8f82 0d3e 42e5 763d
00000070: 217b dcbd 092c 903d e7c1 97bd c014 0cbe
00000080: 973d 11bd 56e4 963d ac4f 56bd bdce 0fbe
00000090: 55b6 d13d 26ad e53d 991d 113e ccd1 133d
000000a0: cf01 3b3d c7f3 d63d d87a c33d 6edf c63d
000000b0: aea7 f73d 903a 443d ada0 0d3e b11f e4bd
000000c0: 4c77 2ebd b651 913d ad97 20be 8a56 0c3d
000000d0: 168d cb3d 1d5f 07be ae7c 09be c133 193e
000000e0: ca38 9fbc 3e96 e53c 226b 0cbd 32c1 24bd
000000f0: 1ad2 163e 1169 9ebd 69ab eabc d5f5 a4bc
00000100: 2af8 f63d 2d95 713c 1c66 d6bd 8609 e73d
00000110: b312 e8bd 13a5 033d 2219 683b 8f54 d9bd
00000120: 8841 873c 16b5 fb3d a916 cd3d bc9e d43c
00000130: 5f91 66bd 2b54 813d 6ea5 99bc 864d f9bd
00000140: 54ce 2cbd 5c3f 93bd 7e62 98bd f2f5 12be
00000150: 9ca4 86bb ba07 ef3d c8b5 40bd 2552 bcbc
00000160: decb 033e 3cb3 0dbd de28 37bb 1973 a6bd
00000170: 5662 69bd c881 613b deb9 bf3b d3bd 6dbc
00000180: e1f9 dcbd fac2 13bd 086a 473d e1c1 843d
00000190: f2bc c2bd c35c 5fbb b92e e13d 9222 b0bd
000001a0: 2caf cebd 6608 d43c f624 e63d 848e b8bd
000001b0: 1510 94bd 06bd f4bd e867 8abc 61ab 093e
000001c0: 684c b7bd 3539 7cbd 7a4c 523d ddfa b63d
000001d0: e2ed 4bbd e8f8 973d 3aca 6dbd 344f 1abe
000001e0: a94f f23d 2d1b 053e 0060 173a f0f4 ecbc
000001f0: c772 05bd 82a5 a6bc c382 133d 56c9 1c3e
00000200: d27e adbd df38 c5bd 5c40 01be 38fc 4f3d
00000210: 2f61 113e 0666 cdbb 47c7 9f3d a6a2 1a3d
00000220: fb3c 263e b051 b7bc 3bff 843d c575 4f3c
00000230: 335f 92bd 00e7 babc dba3 2f3d 0fd4 3f3d
00000240: 040b a0bd 70ca 96bd f39f 00be cfd3 0e3e
00000250: 8483 083e 8e38 89bd 78bb 193e 0004 083e
00000260: eb01 0d3e 92e4 b33d a4fe d7bd 6272 093e
00000270: 0f63 533d bb72 0fbe 489c 75bd ea4d dfbd
00000280: 1aad c13d b24b 913d 5581 a8bd c521 dc3d
00000290: 88c3 dbbc f25b a63b b5c1 85bc 56c6 5b3c
000002a0: 4fed 1cbe 3258 a63d f6f5 e9bc 0770 d5bd
000002b0: ac8b 17be 6318 c93d 85e5 f1bd 084b 85bd
000002c0: 5f6d b7bd a890 b83d 16d7 15be d391 943d
000002d0: 4269 fb3d 5385 273e d031 21bc fac8 de3d
000002e0: 92a8 863d 95f2 10be d71b f43d ffbc 00be
000002f0: 43e3 053e 12d9 df3d 7897 bb3c a69a 283d
00000300: d682 093e c28d 17be 87c3 a1bd f37b 05be
00000310: dad1 0e3e f09d febd 3aa0 883d 200e 6ebc
00000320: 0dd7 0b3d c5e9 eebd 44e3 88bd 2e70 11bd
00000330: 5741 c73d 8806 f0bd 807e 7dbd 39d4 193e
00000340: 3065 923d 2409 dd3d 76e4 bd3d bc99 05bd
00000350: 173c f43d 2d21 0dbc e22e bc3d 7aab dbbd
00000360: 632b 493c d5a2 ed3d 73cc b33c 2da6 a5bd
00000370: 99f5 a4bd 8d43 b53b 9447 df3d 2962 1bbe
00000380: 6790 b8bd 08da 183d 2145 19be 274b 483c
00000390: 6eb7 07be 6c44 d03d 754c e4bd 3835 a0bd
000003a0: 1274 e2bd c0e5 9b3c 0730 8e3d 90e7 10bc
000003b0: 5d4c d53c 19e3 babd e0b2 19be 6810 68bd
000003c0: bfc3 c73d 5c69 153e e982 9b3d 423c e63d
000003d0: 5da6 a2bd 299c 9a3d aa20 bf3d 984f cdbc
000003e0: f804 6bbd 1954 3f3d f82a ca3d 4e76 4ebd
000003f0: afe0 20be 14d3 863d d50f 433c 1d1a c13d

sequential/dense/BiasAdd/ReadVariableOp:0 f4 [180]
0.0 0.00582649 0.0 -0.0059900046 0.0059909406 0.0058435877 -0.006032051 0.0058017955
-0.0061624614 0.0063423775 0.0 0.0055091 -0.0059859897 0.005938031 0.0 0.0
-0.0057265987 0.0056747682 -0.006002916 0.0 -0.006004681 -0.005920308 -0.006118669 0.0
-0.0058353054 0.0 0.006247903 -0.0060727717 0.0059267227 -0.0038486319 0.0060013 0.0
-0.0058435067 -0.006262625 0.0059959395 -0.0061308914 0.006079724 0.0063511054 0.0061105606 0.0062180343
0.0066399146 0.005993045 0.006039303 0.0 0.0057766377 0.0 -0.006087978 0.0060354215
0.0 -0.0060724346 -0.0060940236 0.005929913 0.0060178787 0.0 -0.0058445027 0.0
0.0047678947 0.0046072667 -0.006010666 0.0 -0.0059860484 0.0018485266 -0.0059924554 -0.0052699964
0.0 0.0064630224 0.0 0.0062759835 0.00596115 -0.00693206 -0.005963439 0.0
0.0 0.0 -0.006277317 0.005907658 0.005667402 -0.006004787 0.006028039 -0.0060039125
0.0 0.0 0.0053193746 -0.006001753 -0.0060044136 0.0 -0.005518335 0.006103027
0.0058783377 0.0 0.005746511 -0.005946839 0.0 -0.0060313935 0.0059093707 -0.0060488917
0.00614078 -0.0059876614 0.0 0.0060961205 0.005606515 0.005935739 -0.00586648 -0.0059986096
0.0 -0.00611008 0.0 0.005665007 0.0060472004 0.0 -0.0058263703 0.0
0.0 -0.005406281 -0.0057956707 -0.0059179636 0.0 0.0 0.0057656346 -0.004886022
0.0059779207 0.0 0.0 0.0 0.0059532323 0.005516256 0.0060949624 0.006297665
0.0 -0.0040704217 -0.0061243298 0.0 0.0 -0.006170947 0.0061775 0.0060697305
0.0058156615 0.0 0.0059581967 0.0052009528 0.005975932 0.0 0.0057891016 0.009061979
-0.0060757226 0.0 -0.0060730875 -0.0058427597 -0.0059991227 0.0 -0.005907031 0.0061276266
-0.0060033663 0.005742615 0.005746045 -0.0060033747 -0.0059777456 0.0 0.0 0.0
0.0 0.0 -0.006035869 0.005859641 0.0 0.005848652 -0.0060047815 0.0057847137
0.0 0.0060991547 0.0059804562 0.0 0.0 -0.006001513 0.006074369 0.0
0.0 0.006371169 0.0060153804 -0.006004699
00000000: 0000 0000 24ec be3b 0000 0000 cd47 c4bb
00000010: a74f c43b 917b bf3b 83a8 c5bb fd1c be3b
00000020: 79ee c9bb b8d3 cf3b 0000 0000 ae85 b43b
00000030: 1f26 c4bb d093 c23b 0000 0000 0000 0000
00000040: 31a6 bbbb 68f3 b93b 1cb4 c4bb 0000 0000
00000050: eac2 c4bb 25ff c1bb 1e7f c8bb 0000 0000
00000060: 1736 bfbb 0000 0000 36bb cc3b 1afe c6bb
00000070: f434 c23b 5439 7cbb 8ea6 c43b 0000 0000
00000080: e37a bfbb b536 cdbb 9679 c43b a5e5 c8bb
00000090: 6c38 c73b ef1c d03b 193b c83b a7c0 cb3b
000000a0: a493 d93b 4e61 c43b 58e5 c53b 0000 0000
000000b0: f349 bd3b 0000 0000 a97d c7bb c9c4 c53b
000000c0: 0000 0000 46fb c6bb 60b0 c7bb b74f c23b
000000d0: a031 c53b 0000 0000 3e83 bfbb 0000 0000
000000e0: 003c 9c3b 8ef8 963b 1ff5 c4bb 0000 0000
000000f0: 9d26 c4bb 434a f23a 5c5c c4bb efaf acbb
00000100: 0000 0000 c3c7 d33b 0000 0000 c4a6 cd3b
00000110: c055 c33b 5526 e3bb f468 c3bb 0000 0000
00000120: 0000 0000 0000 0000 f4b1 cdbb 0795 c13b
00000130: 9db5 b93b cec3 c4bb db86 c53b 78bc c4bb
00000140: 0000 0000 0000 0000 264e ae3b 5aaa c4bb
00000150: acc0 c4bb 0000 0000 26d3 b4bb e7fb c73b
00000160: 129f c03b 0000 0000 3a4d bc3b b4dd c2bb
00000170: 0000 0000 ffa2 c5bb 65a3 c13b c835 c6bb
00000180: 9938 c93b 2534 c4bb 0000 0000 f7c1 c73b
00000190: dbb6 b73b 9680 c23b 9a3b c0bb fc8f c4bb
000001a0: 0000 0000 1137 c8bb 0000 0000 86a1 b93b
000001b0: 9827 c63b 0000 0000 23eb bebb 0000 0000
000001c0: 0000 0000 2c27 b1bb 9ce9 bdbb 7aeb c1bb
000001d0: 0000 0000 0000 0000 a6ed bc3b ec1a a0bb
000001e0: 6fe2 c33b 0000 0000 0000 0000 0000 0000
000001f0: 5513 c33b b6c1 b43b 40b8 c73b a55c ce3b
00000200: 0000 0000 2c61 85bb 9aae c8bb 0000 0000
00000210: 0000 0000 a835 cabb a06c ca3b 97e4 c63b
00000220: 4e91 be3b 0000 0000 fa3c c33b c16c aa3b
00000230: c0d1 c33b 0000 0000 81b2 bd3b b278 143c
00000240: db16 c7bb 0000 0000 c000 c7bb 9f74 bfbb
00000250: 4a94 c4bb 0000 0000 c48f c1bb 42ca c83b
00000260: e3b7 c4bb 8c2c bc3b 5249 bc3b f5b7 c4bb
00000270: f7e0 c3bb 0000 0000 0000 0000 0000 0000
00000280: 0000 0000 0000 0000 8ac8 c5bb 3b02 c03b
00000290: 0000 0000 0da6 bf3b c2c3 c4bb b28d bd3b
000002a0: 0000 0000 6bdb c73b b4f7 c33b 0000 0000
000002b0: 0000 0000 57a8 c4bb 800b c73b 0000 0000
000002c0: 0000 0000 3dc5 d03b ab1c c53b 11c3 c4bb
